task5/task5.pt (torch, 849903 bytes, 16 tensors)

layer1.0.weight f4 [16, 1, 3, 3]
0	0xbc92e517	-0.017931504
1	0xbe8f3b92	-0.27975136
2	0xbec38bc1	-0.3819256
3	0x3e4ed605	0.2019883
4	0x3e3a4f40	0.18194294
5	0xbe10861e	-0.14113662
6	0xbe86689a	-0.2625168
7	0xbead4db6	-0.3384835
8	0x3d32c48c	0.043644473
9	0xbe0be6e5	-0.13662298
10	0xbe417435	-0.18891986
11	0x3cf99203	0.030465132
12	0x3e3ee225	0.18640955
13	0x3ce47b00	0.027890682
14	0xbe8762cd	-0.26442567
15	0x3e3430bc	0.17596716
16	0x3e2e1300	0.16999435
17	0x3ecd36f8	0.40081
18	0x3dc83205	0.097751655
19	0xbd410c92	-0.04713113
20	0xbd374d04	-0.044751182
21	0xbe03a1fc	-0.12854761
22	0xbe948272	-0.29005772
23	0xbe769c44	-0.24083048
24	0x3ebfd7f1	0.37469438
25	0x3ecab228	0.39589047
26	0x3e050aa1	0.12992336
27	0x3d4335e6	0.047658823
28	0xbe94caab	-0.29060873
29	0xbe767407	-0.24067698
30	0x3ec921bd	0.39283553
31	0xbce03210	-0.027367622
32	0xbe15aa5a	-0.14615765
33	0x3ec51c2e	0.38498062
34	0x3d34775d	0.044059146
35	0x3e41c62d	0.18923254
36	0xbe56a4d7	-0.20961319
37	0x3e833f54	0.25634253
38	0x3e1c84ed	0.15285082
39	0xbe457394	-0.19282371
40	0xbe3b38d8	-0.18283403
41	0x3e83e3d2	0.2575975
42	0xbc599c16	-0.013281843
43	0x3e9ed39b	0.31020817
44	0x3e36e684	0.17861372
45	0x3e8e3064	0.27771294
46	0xbe561ce9	-0.20909466
47	0xbeafa04e	-0.3430199
48	0xbe9b46c0	-0.30327415
49	0x3e96501a	0.29357988
50	0xbd18beda	-0.037291385
51	0x3e2af058	0.16693246
52	0x3d7ab7ac	0.06121032
53	0x3e49f53b	0.19722454
54	0x3e0aeafd	0.13566203
55	0xbe8c86fc	-0.27446735
56	0x3d9022c8	0.07037884
57	0x3daffcd9	0.08593149
58	0xbe956d5a	-0.2918499
59	0x3ee219e0	0.44160366
60	0xbe7d107f	-0.24713324
61	0xbd753f3e	-0.059874766
62	0x3e3dc130	0.18530726
63	0x3e690bea	0.22758451
64	0xbcd9f13d	-0.02660429
65	0xbe12030a	-0.14258972
66	0x3d9ec3f5	0.077522196
67	0x3ea825b8	0.32841277
68	0x3e236f9e	0.15960547
69	0xbe53123f	-0.20612429
70	0xbd854174	-0.06506625
71	0x3df2cf8e	0.11855994
72	0x3d4924ba	0.04910729
73	0x3e557f72	0.20849398
74	0x3e17ca1e	0.14823195
75	0x3e8aeea1	0.27135184
76	0xbcc081fd	-0.023499483
77	0xbe6df5c6	-0.23238286
78	0x3d01ac4a	0.03165845
79	0xbe690cd9	-0.22758807
80	0x3dffcb29	0.124899216
81	0x3db32183	0.08746626
82	0xbc64ce5c	-0.0139652155
83	0xbe98de1b	-0.29856953
84	0xbe8beab7	-0.2732751
85	0xbe1e4b9e	-0.15458533
86	0xbe1218df	-0.142673
87	0xbec094c5	-0.37613502
88	0x3e205958	0.15659082
89	0x3e4398a1	0.19101192
90	0xbe862274	-0.2619816
91	0xbea863bc	-0.3288859
92	0x3d70f08f	0.058823165
93	0xbe0d3f6f	-0.13793729
94	0x3e76315b	0.24042265
95	0xbe3c79de	-0.18405864
96	0xbe23a27b	-0.1597995
97	0xbe9c2829	-0.3049939
98	0x3ecde076	0.40210313
99	0xbde26b0c	-0.11055574
100	0x3ea2321e	0.3167886
101	0x3e326bf5	0.17423995
102	0xbced34c3	-0.028955823
103	0xbd3ea924	-0.046548024
104	0xbea1ecdd	-0.31626025
105	0xbe610b8d	-0.21977063
106	0x3cc026b3	0.023455953
107	0xbd2c47ec	-0.042060778
108	0xbe259337	-0.1616944
109	0x3d7237ae	0.05913513
110	0x3e3ce7a4	0.18447739
111	0x3de74b5f	0.11293673
112	0x3e919a2b	0.28437933
113	0xbd339ca5	-0.04385056
114	0x3e53ab75	0.20670874
115	0xbd188897	-0.037239637
116	0xbe038c1e	-0.12846419
117	0xbe46c04a	-0.1940929
118	0xbe4775e5	-0.19478567
119	0x3d9d3725	0.076765336
120	0x3de540c1	0.111939915
121	0x3ed03e17	0.4067237
122	0x3e5b7cd0	0.21434331
123	0x3dc742c2	0.0972953
124	0xbd118fcc	-0.035537526
125	0xbdea215c	-0.11432144
126	0x3e05683e	0.13028046
127	0x3d06b5fa	0.03288839
128	0xbe44c6d2	-0.19216469
129	0xbea9d4eb	-0.33170256
130	0xbea3a8f8	-0.3196485
131	0x3d78a904	0.06070806
132	0x3e5b32fa	0.21406165
133	0x3eb6cda0	0.35703754
134	0x3deed52f	0.11661755
135	0xbe825690	-0.25456667
136	0x3d7e9f8e	0.062163882
137	0x3ed82059	0.4221218
138	0xbdd02956	-0.10164134
139	0xbe5778d0	-0.2104218
140	0xbcc4f8c1	-0.024044396
141	0x3e04de8d	0.12975521
142	0xbe0598d5	-0.13046582
143	0xbe863d20	-0.2621851

layer1.0.bias f4 [16]
0	0x3e0fc4ad	0.1403987
1	0x3e891ec0	0.26781273
2	0xbdc2f4e3	-0.09519365
3	0x3e7e5c58	0.24839914
4	0xbe8c45aa	-0.273969
5	0xbe44c89c	-0.19217151
6	0x3e04fdc1	0.12987424
7	0x3e7a22b3	0.24427299
8	0x3cb4b0fb	0.022057047
9	0x3e08aa99	0.13346328
10	0xbd89b5b3	-0.067241095
11	0x3dfa4484	0.122200996
12	0xbe23cd3f	-0.15996264
13	0xbe0ab383	-0.13545041
14	0x3e40a75f	0.18813847
15	0xbe3c4db0	-0.1838901

layer1.1.weight f4 [16]
0	0x3f3c6fd4	0.73608136
1	0x3f858fdd	1.0434529
2	0x3f7070fc	0.939224
3	0x3f852def	1.0404643
4	0x3f880d50	1.0629063
5	0x3f2f0ac8	0.68375826
6	0x3f854a5c	1.0413318
7	0x3fa9e57a	1.3273156
8	0x3f898a28	1.0745287
9	0x3f3353ff	0.7005004
10	0x3f2422fc	0.6411588
11	0x3f7af8aa	0.9803568
12	0x3fb1c062	1.3886836
13	0x3f784d5f	0.9699306
14	0x3f80247c	1.0011134
15	0x3f709e8c	0.93991923

layer1.1.bias f4 [16]
0	0xbe9044a5	-0.28177372
1	0xbd8ab9a1	-0.06773687
2	0xbde3bc28	-0.11119872
3	0xbe2b2579	-0.16713513
4	0xbe589fc7	-0.211547
5	0xbe62e5f5	-0.22158034
6	0xbeb1c799	-0.34722593
7	0xbd9cb638	-0.07651943
8	0xbe028b44	-0.12748438
9	0xbf05196d	-0.5199192
10	0xbee8d32a	-0.45473605
11	0xbebd838b	-0.37014422
12	0xbd33c311	-0.0438872
13	0x3c4149fa	0.011797423
14	0xbd4b2656	-0.049597107
15	0xbf0f6f09	-0.560288

layer1.1.running_mean f4 [16]
0	0xbf29f5b8	-0.6639056
1	0x3f179450	0.5921068
2	0x3db6ee74	0.089322
3	0x3f05507d	0.5207594
4	0x3e2c2c64	0.16813809
5	0xbdb48df9	-0.08816142
6	0x3e0dc328	0.13843977
7	0x3f276ac7	0.65397304
8	0x3e98f170	0.29871702
9	0xbf0b8c3d	-0.5451086
10	0xbf217562	-0.63069737
11	0xbd8ab9bc	-0.06773707
12	0x3e66c6db	0.22536795
13	0x3e4412c2	0.1914778
14	0x3e795d97	0.24352108
15	0xbefc0749	-0.49224308

layer1.1.running_var f4 [16]
0	0x3dae3d24	0.085077554
1	0x3d40fdfd	0.047117222
2	0x3d4eea59	0.05051646
3	0x3da6c653	0.08143296
4	0x3d806748	0.06269699
5	0x3cbf758f	0.023371486
6	0x3d0983cc	0.033572957
7	0x3cafd9a8	0.021466091
8	0x3cc43b95	0.023954192
9	0x3d818793	0.06324687
10	0x3d845123	0.06460788
11	0x3cc0ec00	0.023550034
12	0x3cb64e52	0.022254143
13	0x3cd4a8e3	0.025959438
14	0x3cf0c775	0.029391984
15	0x3cda4a67	0.026646806

layer2.0.weight f4 [64, 16, 3, 3]
0	0x3dcaa696	0.09895055
1	0x3e042125	0.12903269
2	0x3dcb9701	0.09940911
3	0x3d28781f	0.04113018
4	0xbcd1510d	-0.025551343
5	0xbdd18c2d	-0.102318145
6	0xbc985ad3	-0.018597996
7	0xbe0e7a92	-0.13913944
8	0xbe01c686	-0.12673387
9	0xbb9c72dd	-0.004774435
10	0xbd741f80	-0.059600353
11	0x3af8e939	0.0018990404
12	0xbd09398d	-0.03350215
13	0x3d76a6fb	0.06021784
14	0xbcf6c12d	-0.03012141
15	0x3e230544	0.15919977
16	0x3e12c6b5	0.14333613
17	0x3cd36776	0.02580617
18	0x3c30b2a4	0.010784779
19	0xbbfd7e7d	-0.007736026
20	0x3d3f92a5	0.04677071
21	0x3d659d71	0.05605835
22	0x3dec24e0	0.11530471
23	0xbc85c045	-0.016327033
24	0xbc58c956	-0.013231596
25	0x3d313e2c	0.043272182
26	0xbe45e407	-0.19325267
27	0xbd5d02f4	-0.053957894
28	0xbdda94ac	-0.10672888
29	0x3d213bc2	0.03936363
30	0xbdf95f0b	-0.12176331
31	0xbd2368c2	-0.039894827
32	0x3d7fa281	0.062410835
33	0x3d887cbd	0.06664417
34	0x3c6525cb	0.013986061
35	0xbd016a13	-0.0315953
36	0xbd900f83	-0.070342086
37	0x3d86f3cc	0.06589469
38	0xbc7df1f9	-0.015499585
39	0x3cc50c07	0.024053587
40	0x3db3c99c	0.08778688
41	0x3e0f673e	0.14004228
42	0xbd2e1c1d	-0.04250728
43	0xbcb6dee2	-0.022323076
44	0x3c6c401a	0.01441958
45	0x3d54c68a	0.051947154
46	0x3d13af0a	0.036055602
47	0x3e0a421b	0.1350178
48	0x3c52b129	0.012859621
49	0x3c82a5c3	0.015948182
50	0x3dcf2038	0.10113567
51	0xbdb70aff	-0.08937644
52	0x3dde19a5	0.10844735
53	0xbd3229cd	-0.043496896
54	0xbce3072f	-0.027713386
55	0x3d490c50	0.049084008
56	0xbdc6c398	-0.09705275
57	0xbd82c730	-0.06385648
58	0xbd4e0d93	-0.050305914
59	0x3d837e8a	0.0642062
60	0xbe10f721	-0.14156772
61	0xbc211f85	-0.009834175
62	0xbe02bd80	-0.12767601
63	0x3d4d854c	0.05017595
64	0xbc1b213b	-0.009468372
65	0xba939ac4	-0.0011261334
66	0xbc126f2b	-0.008937637
67	0x3d84650f	0.06464588
68	0x3d4cbfc3	0.049987566
69	0x3d4da3e4	0.050205126
70	0xbd7486e6	-0.05969896
71	0xbe2306f4	-0.15920621
72	0xbcd38d23	-0.025824135
73	0xbceb9391	-0.028756889
74	0x3d94fc1e	0.0727465
75	0xbded41af	-0.11584794
76	0x3d7c8fea	0.061660685
77	0xbd3a2528	-0.04544559
78	0xbe246942	-0.16055778
79	0xbe22b136	-0.15887913
80	0x3d8905e2	0.06690575
81	0x3e20f6a7	0.1571909
82	0x3c8bf7fc	0.017086022
83	0x3e32ec9b	0.1747307
84	0x3d3a09fb	0.045419674
85	0x3cd84a1b	0.026402524
86	0x3ccbb55e	0.024866756
87	0xbd1f2cec	-0.0388612
88	0x3cff78a2	0.031185452
89	0xbd80f984	-0.06297591
90	0x3d9b0c76	0.07570736
91	0x3d9a4ebf	0.07534551
92	0x3e51c1ec	0.20484132
93	0x3dbfbc1f	0.09362053
94	0xbd0ea677	-0.034826722
95	0x3d2ea3a6	0.042636536
96	0x3d12a43b	0.035801154
97	0x3c12307c	0.008922692
98	0xbdd55aa0	-0.10417676
99	0x3d6bf8a2	0.05761016
100	0xbd3e841a	-0.0465127
101	0x3d35fb27	0.04442897
102	0xbbf316e7	-0.0074185017
103	0xbd80179a	-0.06254502
104	0xbdf4ba48	-0.11949593
105	0xbe4ef519	-0.20210685
106	0xbe1a6de7	-0.15080987
107	0xbc4ab0a8	-0.01237122
108	0xbde639ca	-0.11241491
109	0xbc291ba1	-0.010321529
110	0xbc56cda1	-0.013110549
111	0x3c362b1f	0.011118679
112	0x3d040a80	0.032236576
113	0xbcc0c1a4	-0.023529835
114	0xbdaa83a1	-0.083258875
115	0x3e2faf37	0.17156683
116	0x3e4330b0	0.19061542
117	0xbd167221	-0.036729936
118	0xbd409f60	-0.04702699
119	0xbdf3ebcd	-0.1191021
120	0x3b91b004	0.0044460315
121	0x3bf7aecd	0.0075586797
122	0x3d023ad2	0.031794377
123	0x3d61585b	0.055015903
124	0x3d0a8337	0.033816542
125	0x3e4da45f	0.20082234
126	0x3c7b9992	0.015356438
127	0x3cb8f314	0.022576846
128	0x3dd81529	0.10550911
129	0x3dff579e	0.124678835
130	0x3e07e7e9	0.1327206
131	0x3e056b35	0.13029177
132	0xbd837a25	-0.064197816
133	0x3d73ceb0	0.059523284
134	0xbdbe5071	-0.09292687
135	0x3e10764b	0.14107625
136	0x3da42eca	0.08016737
137	0xba8cd204	-0.0010743742
138	0xbcec3fa0	-0.028838933
139	0xbd818c3d	-0.063255765
140	0xbe0f4de4	-0.13994557
141	0xbe27d55f	-0.16389988
142	0xbdb39817	-0.08769243
143	0xbe13fa79	-0.14451016
144	0x3dd2329f	0.102635615
145	0x3c1abf39	0.009445005
146	0x3bd07a0f	0.006362207
147	0x3da0eeea	0.07858069
148	0x3be40f2b	0.006959816
149	0x3d3e7be0	0.046504855
150	0xbc8075e6	-0.015681218
151	0x3ce116e2	0.027476732
152	0xbd0fcfef	-0.03511041
153	0xbe14415e	-0.1447806
154	0xbe235a8a	-0.15952507
155	0xbd5b6fdb	-0.05357347
156	0xbe1c1a5c	-0.1524443
157	0xbd7ab5fc	-0.06120871
158	0xbd8d376b	-0.06895336
159	0xbe043110	-0.12909341
160	0xbd5552fa	-0.052081086
161	0xbd4716e2	-0.048605807
162	0xbd478c9a	-0.048718072
163	0x3d9df7e3	0.07713296
164	0x3d68f2a9	0.056872044
165	0xbe29b25e	-0.16571948
166	0x3e19b878	0.15011775
167	0x3e0c95ce	0.13729021
168	0xbc28b9e1	-0.010298223
169	0x3dfe2599	0.12409515
170	0x3c9cc55e	0.01913708
171	0xbc423597	-0.011853597
172	0xbcd36908	-0.025806919
173	0x3d11acc5	0.035565156
174	0xbd14e7d9	-0.03635392
175	0x3d8ba58f	0.06818687
176	0x3e097ce3	0.13426547
177	0xbd7035eb	-0.05864517
178	0x3daa7322	0.08322741
179	0x3d8afbc5	0.067863025
180	0x3dc3276a	0.09529002
181	0x3dc14094	0.094361454
182	0xbc8598d1	-0.01630822
183	0x3d7e0f6b	0.062026422
184	0xbdb8dd91	-0.090266354
185	0xbe227945	-0.15866573
186	0xbd6cf022	-0.057846196
187	0xbe250a99	-0.16117324
188	0xbdb63599	-0.08896942
189	0x3c740092	0.014892714
190	0x3cf0d744	0.029399522
191	0x3c5aaa94	0.013346333
192	0x3d545cc9	0.0518463
193	0xbcfdcb4d	-0.03098073
194	0x3d9afa72	0.075673
195	0xbd59f109	-0.053208385
196	0x3b82b08d	0.0039883316
197	0x3d5e6883	0.05429889
198	0x3e33faf8	0.17576206
199	0x3e3644cb	0.1779968
200	0x3d9ab51a	0.07554074
201	0x3e4d0ff9	0.20025624
202	0x3df72a98	0.12068671
203	0x3de4b06e	0.11166464
204	0xbd1473d1	-0.036243264
205	0x3b5e0ff9	0.0033884032
206	0xbb93cbd7	-0.0045103836
207	0xbe65dd7b	-0.2244777
208	0xbe9f1d1b	-0.31076893
209	0xbe6a65e9	-0.22890438
210	0xbea97c06	-0.33102435
211	0xbe154237	-0.1457604
212	0xbc26c184	-0.010177974
213	0x3cca1c90	0.024671823
214	0x3daf00e1	0.085450895
215	0x3d821545	0.06351713
216	0xbc4e5584	-0.012593631
217	0x3e133470	0.14375472
218	0xbd06a6e9	-0.03287402
219	0xbb2a06ad	-0.002594392
220	0xbd46ea55	-0.04856332
221	0x3d2f0df8	0.04273793
222	0xbe111a13	-0.14170103
223	0xbd4d55f9	-0.050130818
224	0x3d9374c0	0.07200003
225	0x3d867837	0.06565898
226	0xbc1270eb	-0.008938055
227	0xbd97a71e	-0.07404922
228	0x3d27dfeb	0.04098503
229	0xbdc2d2f0	-0.095128894
230	0xbdcf7b6d	-0.101309635
231	0xbded669b	-0.11591836
232	0xbdcdcae0	-0.10048461
233	0x3d76ceea	0.060255922
234	0xbc68cd58	-0.014209114
235	0x3da39ca5	0.07988862
236	0x3d6db70f	0.058035906
237	0x3d0c7d15	0.034298975
238	0xbd0c2193	-0.034211706
239	0x3c61892d	0.013765615
240	0xbdba5a08	-0.09099203
241	0xbd9e45c8	-0.077281535
242	0xbde091d6	-0.10965316
243	0x3c946c61	0.018118085
244	0x3d094d41	0.03352094
245	0x3d18d9a7	0.037316944
246	0xbd0657be	-0.03279852
247	0x3dac49f0	0.0841254
248	0x3dc13f28	0.09435874
249	0x3d317d96	0.04333266
250	0x3d8de40b	0.06928261
251	0x3dd75b85	0.10515503
252	0x3e550e7a	0.20806304
253	0x3d2d019b	0.04223786
254	0xbd049d64	-0.032376662
255	0xbdb6ca33	-0.08925285

layer2.0.bias f4 [64]
0	0xbd861c38	-0.06548351
1	0xbca4c574	-0.020113684
2	0x3dda477b	0.10658165
3	0x3cd3d0f0	0.025856465
4	0xbd273e00	-0.040830612
5	0x3d9a55a7	0.07535868
6	0xbda61120	-0.08108735
7	0xbe1cba20	-0.15305376
8	0xbcbca68b	-0.023028633
9	0xbcdab5b9	-0.02669798
10	0xbc3778b7	-0.011198214
11	0x3d20629e	0.03915655
12	0x3c44d790	0.012014285
13	0xbc97dc05	-0.01853753
14	0x3cbc4de3	0.022986358
15	0xbd5111e3	-0.05104245
16	0xbc14fcd4	-0.009093482
17	0x3d93ff3d	0.07226417
18	0xbd989acc	-0.074514
19	0x3d5e6120	0.054291844
20	0xbe166116	-0.14685473
21	0xbc9b3de7	-0.018950416
22	0x3d00693f	0.03135037
23	0xbc838ddd	-0.016058857
24	0xbd02e15d	-0.031953204
25	0x3c859405	0.016305933
26	0x3c2b862f	0.010469004
27	0x3d932bfe	0.07186125
28	0x3d18c1e0	0.03729427
29	0xbca1bc9d	-0.019743258
30	0xbda65114	-0.08120933
31	0xbba85ebf	-0.0051382477
32	0x3da79633	0.08182945
33	0xbda3a0ff	-0.07989692
34	0x3d5c18bb	0.053734522
35	0xbc7d3f24	-0.015456948
36	0x3d21bc47	0.039486196
37	0xbd18fdd7	-0.037351456
38	0xbc3ee16c	-0.011650424
39	0x3cac72ed	0.021050895
40	0x3c74d547	0.014943427
41	0xbd24dd34	-0.04025002
42	0x3c0dff3a	0.008666808
43	0xbdf4cfaf	-0.11953675
44	0x3d5ba756	0.05362638
45	0xbd944391	-0.0723945
46	0xbd89a2c2	-0.06720497
47	0xbce1ca24	-0.027562208
48	0xbdab553e	-0.08365868
49	0x3d5d69f1	0.05405611
50	0xbb091087	-0.0020914392
51	0xbdba4a84	-0.09096244
52	0xbd5a28c9	-0.053261552
53	0x3bbea955	0.005818526
54	0xbd9f480e	-0.07777415
55	0xbc7fba3c	-0.015608367
56	0xbdafe269	-0.08588106
57	0xbd566cbd	-0.052349795
58	0xbc5d5501	-0.013509036
59	0x3cb03e02	0.021513943
60	0xbccf7cf4	-0.025328137
61	0xbd84ecce	-0.064904794
62	0x3d8be854	0.068314224
63	0x3c898fa5	0.016792128

layer2.1.weight f4 [64]
0	0x3f8713ed	1.0552956
1	0x3f91fb7b	1.1404871
2	0x3f8c8a01	1.0979615
3	0x3fa25646	1.2682579
4	0x3f95d150	1.1704502
5	0x3fb183b9	1.3868324
6	0x3fa06646	1.2531211
7	0x3f9885cc	1.1915832
8	0x3f99c7af	1.2014064
9	0x3f9f2141	1.2432023
10	0x3f98aa16	1.1926906
11	0x3f8a3d2c	1.0799918
12	0x3f9bd728	1.2175035
13	0x3f986304	1.1905217
14	0x3f984196	1.1895015
15	0x3f807d27	1.0038193
16	0x3f7bb677	0.98325294
17	0x3f97d03b	1.1860422
18	0x3faa1281	1.3286897
19	0x3f895eeb	1.0732092
20	0x3f896e5a	1.0736802
21	0x3f96c084	1.1777501
22	0x3f61c191	0.88185984
23	0x3f8fcf0e	1.1235063
24	0x3f801c3a	1.0008614
25	0x3f9c5133	1.221228
26	0x3f54c897	0.83118576
27	0x3f9b9e1d	1.2157627
28	0x3f8aeb71	1.0853101
29	0x3f925784	1.1432958
30	0x3f8858cf	1.0652102
31	0x3f85d0ab	1.0454305
32	0x3f7b19b7	0.9808611
33	0x3f8d67ad	1.1047264
34	0x3f86ff0c	1.0546584
35	0x3f9fd90d	1.2488114
36	0x3f84711a	1.0347016
37	0x3f867a25	1.0506026
38	0x3fa775eb	1.3082861
39	0x3f87d30c	1.0611281
40	0x3f975af7	1.1824635
41	0x3f890afd	1.0706478
42	0x3f963d32	1.1737425
43	0x3f8ad7a2	1.0847056
44	0x3f8e6dc4	1.1127248
45	0x3f954a5e	1.166332
46	0x3f94b5d7	1.1617993
47	0x3f874e44	1.057076
48	0x3f910490	1.1329517
49	0x3f864c02	1.0491946
50	0x3f9f73dd	1.2457234
51	0x3f8e9278	1.1138449
52	0x3f5a3ddf	0.8525066
53	0x3f709124	0.93971467
54	0x3f8d6dbd	1.1049114
55	0x3f97ce4f	1.1859835
56	0x3f8ff96f	1.1247996
57	0x3f9594aa	1.1685994
58	0x3f88d64e	1.0690401
59	0x3f9a7d0c	1.2069411
60	0x3fabef2f	1.3432368
61	0x3f9e3307	1.2359322
62	0x3f9ed5f6	1.2409046
63	0x3f921bf0	1.1414776

layer2.1.bias f4 [64]
0	0xbede6435	-0.43435827
1	0xbf0b72ca	-0.5447203
2	0xbdb7010a	-0.08935745
3	0xbe78d6ab	-0.2430064
4	0xbebc7e90	-0.3681531
5	0xbebc352f	-0.36759326
6	0xbeeff4f2	-0.46866566
7	0xbe099c2d	-0.13438483
8	0xbeaf9fae	-0.34301513
9	0xbe3729c6	-0.17887029
10	0xbdd1cd45	-0.1024423
11	0xbef659fe	-0.48115534
12	0xbec83d13	-0.39109096
13	0xbeb16845	-0.34649864
14	0xbe97308b	-0.29529223
15	0xbecb48cb	-0.39703974
16	0xbf191fd0	-0.5981417
17	0xbed1cad0	-0.40975046
18	0xbf032b1d	-0.5123766
19	0xbf0c9a7b	-0.5492322
20	0xbeb7713d	-0.3582858
21	0xbea27c84	-0.31735623
22	0xbeffebee	-0.49984688
23	0xbf01e858	-0.50745153
24	0xbedca4a0	-0.4309435
25	0xbecafc93	-0.39645824
26	0xbf067ae5	-0.5253127
27	0xbee77c6b	-0.4521211
28	0xbea87426	-0.32901114
29	0xbea62596	-0.3245055
30	0xbeae279c	-0.34014595
31	0xbe8bf285	-0.27333465
32	0xbf186418	-0.5952773
33	0xbeb1904e	-0.34680408
34	0xbeefc882	-0.46832663
35	0xbea3db19	-0.32003096
36	0xbef087d6	-0.46978635
37	0xbeda036d	-0.4258074
38	0xbf146e11	-0.5798045
39	0xbec53b41	-0.3852177
40	0xbec2ceff	-0.3804855
41	0xbefe6921	-0.49689582
42	0xbe380bff	-0.17973326
43	0xbea9b384	-0.33144772
44	0xbeba31c7	-0.36366102
45	0xbecef167	-0.4041855
46	0xbee28156	-0.442393
47	0xbeb93100	-0.36170197
48	0xbe9ec903	-0.31012735
49	0xbf011964	-0.5042937
50	0xbedefbb9	-0.43551424
51	0xbebb1db3	-0.36546096
52	0xbedcfb13	-0.43160304
53	0xbf0800dc	-0.5312631
54	0xbebd6713	-0.36992702
55	0xbe825319	-0.25454023
56	0xbd937426	-0.07199888
57	0xbe96657b	-0.29374298
58	0xbebedc10	-0.3727727
59	0xbea511c9	-0.32240131
60	0xbeea052a	-0.45707065
61	0xbead1762	-0.33806902
62	0xbea58ce4	-0.32334054
63	0xbead834b	-0.3388923

layer2.1.running_mean f4 [64]
0	0xbd63d08b	-0.055618804
1	0xbf453042	-0.7702676
2	0xbeb38fdc	-0.35070693
3	0xbf96f37e	-1.1793058
4	0x3f9391f9	1.1528922
5	0x3f521bec	0.82073855
6	0x3ee6b49d	0.45059672
7	0xbeb5ca22	-0.35505778
8	0x3f81a829	1.0129443
9	0x3f1d3254	0.6140492
10	0x3ed70978	0.41999412
11	0xbe46a5a0	-0.19399118
12	0x3f2898e3	0.65858287
13	0x3e31b7a2	0.17355207
14	0xbed530c7	-0.41638777
15	0x3ea0fb5e	0.31441778
16	0xbec115fe	-0.3771209
17	0x3ed403fb	0.41409287
18	0xbf77f8db	-0.968641
19	0x3e9ef54c	0.31046522
20	0x3f1c472b	0.61046094
21	0x3f50feb5	0.8163865
22	0xbfc876d8	-1.5661268
23	0xbfbf09bc	-1.4924846
24	0xbceb4847	-0.028720988
25	0xbe256f4e	-0.1615574
26	0x3f335799	0.7005554
27	0x3f9b6ab3	1.2141937
28	0x3e83a2d7	0.25710174
29	0xbed2f77b	-0.41204438
30	0x3ef797d2	0.48358017
31	0x3e43315a	0.19061795
32	0xbeb39d99	-0.35081175
33	0x3ece7aaf	0.40327975
34	0xbc6754c6	-0.014119333
35	0xbec06268	-0.37575078
36	0xbd6073a0	-0.05479777
37	0x3f02760a	0.50961363
38	0xbedb594e	-0.42841572
39	0xbf6258b2	-0.8841659
40	0x3f5684b8	0.8379626
41	0x3e92b9b1	0.28657296
42	0xbd3005e2	-0.04297436
43	0xbf73455c	-0.9502771
44	0xbf22d7b2	-0.63610375
45	0xbf0d22d6	-0.5513128
46	0x3ddbd617	0.10734194
47	0x3dc7f3e6	0.09763317
48	0x3e614df3	0.22002392
49	0xbe2b5e6d	-0.1673524
50	0xbe18af3e	-0.149106
51	0xbea8ea6f	-0.3299136
52	0xbeace6ba	-0.3376978
53	0xbf82c441	-1.0216142
54	0xbea42579	-0.3205984
55	0xbf832837	-1.0246648
56	0xbf016300	-0.50541687
57	0xbd6d7ba3	-0.057979237
58	0xbe89a4b9	-0.26883486
59	0xbf691076	-0.9104074
60	0xbf22dd87	-0.63619274
61	0xbfbf3981	-1.4939424
62	0xbe526f86	-0.20550355
63	0xbe8f00d0	-0.27930307

layer2.1.running_var f4 [64]
0	0x3f8f9728	1.1218004
1	0x3ee98c36	0.45614785
2	0x3fa829e3	1.3137783
3	0x3f1aebd7	0.60516113
4	0x3f3eba14	0.7450268
5	0x3f28e781	0.65978247
6	0x3f13a108	0.5766759
7	0x3f88782c	1.0661674
8	0x3f9df6bf	1.2340926
9	0x3f46c70e	0.77647483
10	0x3f6020a4	0.87549806
11	0x3f65ee83	0.89817065
12	0x3f1c1eed	0.6098469
13	0x3f8c7daa	1.097585
14	0x3f671c53	0.90277594
15	0x3f1b516a	0.60671103
16	0x3f440ac9	0.76578957
17	0x3f182c8c	0.59442973
18	0x3f0b4856	0.5440725
19	0x3f6e6881	0.9312821
20	0x3f4cf7ed	0.80065805
21	0x3f8b0ca2	1.086323
22	0x3f5b6a1c	0.85708785
23	0x3ed858f0	0.42255354
24	0x3f4b44da	0.79401934
25	0x3efd24ca	0.4944213
26	0x3f19bee0	0.6005688
27	0x3f4b0151	0.79298884
28	0x3ef39f56	0.475825
29	0x3f21fbdd	0.6327494
30	0x3f7be7ac	0.9840038
31	0x3f128c0a	0.5724493
32	0x3f0a5bf6	0.5404657
33	0x3f5f5611	0.872407
34	0x3f42e137	0.761249
35	0x3f042d72	0.51631844
36	0x3f17a08c	0.5922935
37	0x3f892745	1.0715109
38	0x3f12e73e	0.573841
39	0x3f0fdeaf	0.56199163
40	0x3f7fbda3	0.9989874
41	0x3f11e5ed	0.56991464
42	0x3f49a8c9	0.7877317
43	0x3f52a6d1	0.8228579
44	0x3f02120c	0.5080879
45	0x3f2f2c96	0.6842741
46	0x3f75b623	0.95981044
47	0x3f66c028	0.9013696
48	0x3f8680a0	1.0508003
49	0x3f615578	0.8802104
50	0x3f1aa234	0.6040375
51	0x3f5a3612	0.85238755
52	0x3fa15931	1.2605344
53	0x3f2a59b6	0.6654314
54	0x3f9bc493	1.2169365
55	0x3f5c0bae	0.8595532
56	0x3f874ccb	1.057031
57	0x3f8668ee	1.0500772
58	0x3f1a98cc	0.603894
59	0x3f273922	0.6532155
60	0x3f23fda3	0.64058894
61	0x3efe8646	0.49711818
62	0x3f30ddbc	0.6908834
63	0x3f3db060	0.7409725

layer3.0.weight f4 [64, 3136]
0	0x3c0548b8	0.008135013
1	0xbc3b6e74	-0.011439908
2	0xbd2b135e	-0.041766517
3	0x3cd3f434	0.025873281
4	0x3d91a4bf	0.07111501
5	0x3d4bb3ba	0.049731947
6	0x3ba89ea5	0.005145865
7	0x3c6e3ee1	0.014541359
8	0xbc270dd2	-0.010196166
9	0xbddef93d	-0.10887382
10	0xbd825c84	-0.06365302
11	0x3d732a77	0.05936667
12	0xbca848e4	-0.02054257
13	0xbe1dcb2d	-0.15409537
14	0xbdc1f8be	-0.09471272
15	0xbe3324aa	-0.17494455
16	0xbd5ac3ec	-0.053409502
17	0x3c29ef75	0.010372032
18	0x3d58f41d	0.05296718
19	0xbdbe845b	-0.093025886
20	0xbdbc9361	-0.09207798
21	0xbd87b809	-0.06626899
22	0xbe3140c2	-0.1730986
23	0x3c7f0326	0.0155647155
24	0x3d33f1b7	0.04393169
25	0xbd0135db	-0.0315455
26	0x3d093097	0.033493605
27	0x3c4e8be1	0.012606592
28	0x3bd5ea73	0.0065281927
29	0xbdbe2b1e	-0.09285568
30	0xbd8d629b	-0.06903573
31	0xbd5e29ec	-0.0542392
32	0x3c939b12	0.01801828
33	0x3d4bc341	0.049746756
34	0x3d4cc7fd	0.04999541
35	0x3a24a514	0.0006280702
36	0x3c82c70b	0.015964052
37	0xbbda834d	-0.0066684843
38	0x3bc6215e	0.006046458
39	0xbc8aa37f	-0.016923664
40	0xbd52a5a8	-0.051427513
41	0x3be0eb16	0.006863962
42	0x3ce12370	0.027482718
43	0xbc353fb9	-0.011062556
44	0xbd1ab77a	-0.037772633
45	0xbd5addb5	-0.053434093
46	0x3bab7f5c	0.0052336883
47	0x3c4ca3a0	0.012490183
48	0x3d612c1c	0.054973707
49	0xbbd847cc	-0.0066003557
50	0xbce0ef39	-0.02745782
51	0xbbe895e8	-0.0070979483
52	0xbd654337	-0.055972304
53	0xbd4deaae	-0.050272636
54	0xbca12a6b	-0.019673547
55	0x3d1d0c7b	0.03834198
56	0xbc98c59c	-0.018648915
57	0x3d037873	0.03209729
58	0x3d89b603	0.06724169
59	0xbd3e2c16	-0.046428762
60	0xbdbeb9ff	-0.0931282
61	0xbd6fbaba	-0.058527686
62	0xbda2e84a	-0.07954462
63	0x3c646e0c	0.013942253
64	0x3d873b34	0.06603089
65	0x3da7d383	0.081946395
66	0x3c88afd4	0.016685404
67	0xbd8756a0	-0.06608319
68	0xbd9a4cb2	-0.0753416
69	0x3d22d46b	0.03975336
70	0x3d13f35a	0.03612075
71	0x3de64217	0.112430744
72	0x3e162584	0.14662749
73	0x3cc2f10c	0.02379658
74	0xbd933714	-0.0718824
75	0xbd07a24f	-0.033113774
76	0x3e1ab94d	0.15109749
77	0x3dd148db	0.10218974
78	0x3de2515c	0.11050674
79	0x3e147322	0.14497045
80	0x3d803249	0.06259591
81	0xbcb0ec7b	-0.021597138
82	0xbb8958c3	-0.0041914894
83	0x3dccebd4	0.10005918
84	0x3d6b6c29	0.057476196
85	0x3b2d8bd3	0.0026481047
86	0xbcb3240e	-0.021867778
87	0x3d894d8c	0.06704244
88	0xbd1739ec	-0.036920473
89	0x3c3948c7	0.011308855
90	0xbad5c23a	-0.0016308494
91	0x3c99c0c8	0.018768683
92	0xbd80bf7d	-0.062865235
93	0x3e12dddc	0.14342445
94	0x3bdf9d85	0.0068241977
95	0xbc2ea3b5	-0.010659148
96	0xbb3afce4	-0.0028532082
97	0x3c4dfe6c	0.012572866
98	0xbc63f42a	-0.013913194
99	0x3baa6ab8	0.00520071
100	0xbd229950	-0.03969699
101	0x3d8763b4	0.06610814
102	0xbc254055	-0.010086139
103	0x3d04faf3	0.032465886
104	0xbd867649	-0.0656553
105	0x3c2c25a8	0.010507025
106	0x3d102f88	0.03520158
107	0x3ca6c252	0.020356331
108	0xbdbe1dae	-0.09283005
109	0xbde648e1	-0.11244369
110	0xbd5dc0fd	-0.054139126
111	0x3c25a1a5	0.01010934
112	0x3c207785	0.009794121
113	0xbb49f277	-0.0030814686
114	0x3c52a727	0.012857235
115	0xbe9ae43c	-0.30252254
116	0xbd4339e6	-0.047662638
117	0xbd2e1232	-0.04249782
118	0xbc81aed1	-0.01583043
119	0xbc692b13	-0.014231461
120	0xbb8afbdd	-0.00424145
121	0xbbdd97c0	-0.006762475
122	0x3dd252ab	0.10269674
123	0x3d179f84	0.03701736
124	0xbb66dbdf	-0.0035226268
125	0x3d80ffaa	0.06298764
126	0x3b7bfeb3	0.0038451373
127	0xbcd8dab6	-0.026471477
128	0x3da7381d	0.08165
129	0x3db49be4	0.08818796
130	0x3cb3d3e2	0.02195162
131	0xbb31efe0	-0.0027151033
132	0x3c5b8890	0.013399258
133	0x3bd4ed78	0.006498035
134	0x3c1883e8	0.009308793
135	0x3c82cb1d	0.015965993
136	0x3d4af097	0.04954585
137	0x3c1dc932	0.009630488
138	0xbd06b334	-0.032885745
139	0xbc816e2d	-0.015799606
140	0x3b3e0966	0.00289973
141	0x3c90273c	0.017596833
142	0x3e1d7bc5	0.15379246
143	0x3ddad840	0.10685778
144	0x3adfb2ee	0.0017066875
145	0x3d0d28ef	0.034462865
146	0xbc5b2037	-0.01337438
147	0x3d5fb344	0.05461432
148	0x3dbab942	0.091173664
149	0xbcf4e624	-0.029894896
150	0xbdb53663	-0.08848264
151	0xbda61944	-0.08110288
152	0xbd41b67b	-0.047293168
153	0x3cc480e0	0.023987234
154	0x3cfc09d0	0.030766398
155	0x3d1bfb11	0.038081232
156	0xbdddb902	-0.10826303
157	0xbde068ee	-0.10957514
158	0xbdbde6c5	-0.092725314
159	0x3cb4322f	0.021996586
160	0xbc7669f7	-0.015039912
161	0x3d0c9cea	0.034329332
162	0x3e4198fe	0.18906018
163	0x3d653e18	0.05596742
164	0x3ced38f3	0.02895782
165	0xbc3932a0	-0.011303574
166	0x3dd95894	0.10612598
167	0x3dbae13c	0.09124991
168	0x3cbc5386	0.022989046
169	0x3e5d1d36	0.21593174
170	0x3e095fcd	0.13415451
171	0xbe39dfab	-0.18151729
172	0xbc29809d	-0.010345605
173	0x3e00c803	0.12576298
174	0x3e41b4cb	0.18916623
175	0x3c85580d	0.016277337
176	0x3de9ddf3	0.114192866
177	0x3e10751b	0.14107172
178	0xbde40ed7	-0.11135643
179	0xbda16368	-0.07880288
180	0x3cca7c8d	0.024717594
181	0x3d97dc45	0.0741506
182	0x3c25e407	0.010125167
183	0x3d8bdc64	0.068291456
184	0x3cad32c4	0.021142371
185	0x3c25665c	0.010095205
186	0xbd245cdb	-0.040127616
187	0x3d0f57e7	0.03499594
188	0xbd5252c4	-0.051348463
189	0xbc57820a	-0.013153562
190	0xbb166f22	-0.0022954424
191	0x3d9bdbfc	0.07610318
192	0x3da6f876	0.08152859
193	0x3d5ab019	0.053390596
194	0x3d23a40c	0.03995137
195	0x3ac68ea6	0.0015148714
196	0x3d0dd938	0.034630984
197	0xbbad2bdf	-0.005284771
198	0xbb81e117	-0.0039636004
199	0xbcb2d5f1	-0.02183053
200	0x3d993b89	0.074820586
201	0x3d325f61	0.04354799
202	0x3b19c8a5	0.002346554
203	0xbc8e0505	-0.017336378
204	0x3d401fa3	0.04690517
205	0x3b83e8b8	0.004025545
206	0x3d3fb54b	0.046803754
207	0x3d12359c	0.035695657
208	0x3d8cd988	0.06877428
209	0xbdf5c98c	-0.12001333
210	0x3d82d2e4	0.063878804
211	0xbdc51025	-0.0962222
212	0xbe204a75	-0.15653403
213	0xbce59467	-0.028024865
214	0x3d6ba5d7	0.057531204
215	0xbcbce074	-0.023056246
216	0xbe1e9ba0	-0.15489054
217	0xbda917d1	-0.08256496
218	0xbe443af4	-0.19163114
219	0xbe1093d4	-0.14118892
220	0xbb3e0270	-0.0028993152
221	0x3d2f473b	0.04279254
222	0xbd9566fc	-0.07295033
223	0xbdfb89d3	-0.12282147
224	0xbc1375c5	-0.009000246
225	0xbdd66667	-0.104687504
226	0xbb4dd7b2	-0.0031409082
227	0x3c27afec	0.010234814
228	0x3dc201b9	0.09472985
229	0xbaa5c405	-0.0012646919
230	0xbdccb509	-0.09995467
231	0x3b4e4cf8	0.0031478982
232	0xbc6d5b77	-0.014487139
233	0x3d8291c8	0.06375462
234	0x3d85e13e	0.06537102
235	0x3d742be6	0.059612177
236	0xbdaab5ef	-0.08335482
237	0xbd53a4f4	-0.051670983
238	0x3c728188	0.0148013905
239	0x3c9a3b27	0.018827034
240	0xbd7e4422	-0.062076695
241	0xbd24ae06	-0.040205024
242	0xbd8a4bbf	-0.06752729
243	0xbb8602a9	-0.0040896726
244	0x3c3a4296	0.011368414
245	0x3c2f2452	0.010689812
246	0x3d834cbe	0.06411122
247	0xbd52846d	-0.051395822
248	0xbe04f1f6	-0.12982926
249	0xbd40ddad	-0.047086406
250	0x3ccaa8ec	0.024738751
251	0xbc2e125d	-0.010624495
252	0xbc528265	-0.012848471
253	0xbe010455	-0.12599309
254	0xbd937835	-0.07200662
255	0x3c23e00b	0.0100021465

layer3.0.bias f4 [64]
0	0xba09eb20	-0.00052611716
1	0xbbf4e96c	-0.007474115
2	0xbb1e6760	-0.0024170503
3	0xbc1def19	-0.009639525
4	0xbcd1aa1f	-0.025593815
5	0xbc57b62d	-0.013165993
6	0x3d09854f	0.0335744
7	0x3b974c38	0.0046172403
8	0xbcabfa29	-0.02099331
9	0xbcc2561b	-0.023722699
10	0xbb8b5e5a	-0.004253191
11	0x3c1c7d14	0.009551305
12	0xba9095d4	-0.001103098
13	0xbdb3e74e	-0.08784352
14	0x3de02703	0.10944941
15	0xbc5507af	-0.01300232
16	0x3d5fb737	0.054618087
17	0x3b8327a4	0.0040025283
18	0x3c6104c5	0.013734047
19	0xbc6c6116	-0.014427444
20	0x3bb1756d	0.0054156096
21	0xbc924593	-0.017855441
22	0xbcc0eda1	-0.02355081
23	0xbd98270d	-0.07429323
24	0x3cb7d321	0.022439541
25	0x3d4b78b9	0.049675677
26	0x3ce81d3f	0.028334258
27	0xbb26c8df	-0.0025449318
28	0x3caea16b	0.021317204
29	0x3ceea1a1	0.029129805
30	0x3cfc57db	0.030803612
31	0xbbe56bd8	-0.0070013814
32	0xbd0ed7b0	-0.034873664
33	0x3af5adbd	0.0018743795
34	0xbd3513fe	-0.04420852
35	0x3c1bd218	0.0095105395
36	0xbd85a2b6	-0.06525175
37	0xbc6ee8e4	-0.014581893
38	0x393ed902	0.00018200654
39	0x3c079c4a	0.008277008
40	0x3b27a8c9	0.0025582782
41	0x3c03fb52	0.008055525
42	0xbd03e89a	-0.032204248
43	0x3d92dfb4	0.07171574
44	0x3b654573	0.0034984022
45	0xbc27c55d	-0.010239926
46	0xbc9d79a2	-0.019223038
47	0xbc7a3c41	-0.015273155
48	0x3cadac26	0.02120025
49	0x3cbff4cd	0.02343216
50	0xbc471e08	-0.012153156
51	0x3b8ffe02	0.0043942938
52	0x3d0eb657	0.03484186
53	0x3bb660b6	0.005565728
54	0x3cbad04f	0.022804407
55	0xba4b821d	-0.0007763224
56	0xbc6f7478	-0.014615171
57	0xb9acb69e	-0.00032942457
58	0xbbf3a322	-0.0074352184
59	0x3c65f990	0.014036551
60	0xbc752668	-0.01496277
61	0xbbf54cc8	-0.0074859597
62	0x3d56779e	0.05236017
63	0xbd3e54cd	-0.04646759

layer3.3.weight f4 [10, 64]
0	0x3e19ca2e	0.15018532
1	0xbe119169	-0.14215626
2	0x3e304966	0.172155
3	0x3d837b7b	0.064200364
4	0xbe0d4178	-0.13794506
5	0x3d507a36	0.0508978
6	0xbe13a9ff	-0.14420317
7	0xbda56eb8	-0.080777586
8	0xbd38f636	-0.04515668
9	0x3dfe4743	0.12415936
10	0x3df0ccb5	0.11757795
11	0x3db42451	0.08795989
12	0x3de9a740	0.114088535
13	0xbe6044ce	-0.21901247
14	0xbe0cc69f	-0.13747643
15	0xbd984e53	-0.07436814
16	0xbe0f159c	-0.13973087
17	0xbd9a2f62	-0.07528569
18	0x3d0a30a1	0.033737782
19	0x3dd85c46	0.10564475
20	0x3df41857	0.11918705
21	0x3d85c4bb	0.06531664
22	0x3ddf8dd9	0.10915727
23	0xbe982bb5	-0.29720846
24	0xbaca84e7	-0.0015450985
25	0xbe746b76	-0.23869118
26	0x3ddbb94c	0.10728702
27	0xbc039e19	-0.008033299
28	0xbb948e21	-0.0045335446
29	0x3e1d9ba4	0.15391403
30	0x3e1019ce	0.14072344
31	0xbcc0a3ca	-0.0235156
32	0xbca29040	-0.019844174
33	0xbdb79571	-0.089640506
34	0xbe46216b	-0.19348685
35	0x3cdcec57	0.026968164
36	0xbe65c71b	-0.22439234
37	0xbcd24556	-0.025667828
38	0x3e1d2bb0	0.15348697
39	0x3cb02ccf	0.021505741
40	0xbb45abf3	-0.0030162304
41	0xbc1aa591	-0.009438888
42	0x3e1daa11	0.15396906
43	0x3c6d14da	0.014470303
44	0x3defdbcd	0.117118455
45	0xbdce1b25	-0.10063771
46	0xbe01a49f	-0.12660454
47	0xbdce5b9f	-0.10076069
48	0xbd8b90ca	-0.06814726
49	0xbe334a8a	-0.17508903
50	0xbdba574e	-0.09098683
51	0x3de2eac5	0.11079935
52	0xbcfe34ff	-0.03103113
53	0x3dde3e1a	0.10851689
54	0x3c11b7a2	0.008893879
55	0xbced9737	-0.029002769
56	0xbeaec4ac	-0.34134424
57	0x3e20e2ab	0.15711467
58	0xbdcc8002	-0.09985353
59	0x3de068b2	0.10957469
60	0x3d39ab2b	0.045329254
61	0xbdd63b47	-0.10460525
62	0xbe962a6a	-0.29329234
63	0x3e2c76d8	0.1684221
64	0xbd67353e	-0.05644726
65	0x3d975eda	0.073911384
66	0xbe197068	-0.14984286
67	0xbd92dd4c	-0.07171115
68	0x3dac336c	0.084082454
69	0x3d12bcf8	0.035824746
70	0x3d9da96a	0.07698329
71	0xbd3c37e7	-0.04595175
72	0xbddfafeb	-0.109222256
73	0xbdef5f20	-0.116880655
74	0xbd3f720d	-0.046739627
75	0x3c26f7e3	0.010190937
76	0x3dd8d66e	0.10587774
77	0xbe2a6664	-0.16640621
78	0x3e8e15a7	0.27750894
79	0x3dc8b262	0.09799649
80	0x3dcbf9c0	0.099597454
81	0x3c1e1d19	0.009650492
82	0xbe97e625	-0.29667774
83	0x3bee3ea9	0.0072706533
84	0x39ba098f	0.00035483806
85	0xbda6072b	-0.08106836
86	0xbc9707e7	-0.018436385
87	0xbe8464f4	-0.2585827
88	0xbd07477c	-0.033027157
89	0x3e4ea4d7	0.20180069
90	0xbe1471d3	-0.14496545
91	0xbc0f36a5	-0.008741056
92	0x3d972940	0.07380915
93	0x3cd02c13	0.025411641
94	0xbd30a7ba	-0.043128707
95	0xbddcc781	-0.1078024
96	0xbe1178b0	-0.14206195
97	0xbc7de3e1	-0.015496225
98	0xbc6965e1	-0.014245481
99	0x3c46cf89	0.012134441
100	0xbe1af9e7	-0.15134393
101	0x3db9e373	0.090765856
102	0x3da1c728	0.07899314
103	0x3d627802	0.05529023
104	0xbd9898a1	-0.07450987
105	0x3de44d3a	0.11147542
106	0x3cf2ba23	0.029629773
107	0x3dfe29cd	0.124103166
108	0xbcf418f8	-0.029797062
109	0xbd72229b	-0.059115034
110	0x3de6920a	0.112583235
111	0xbde3002d	-0.11084018
112	0x3cbd2a84	0.023091562
113	0x3b0dba80	0.0021626055
114	0x3d48a17a	0.04898212
115	0xbda36404	-0.07978061
116	0x3e112b7d	0.14176746
117	0xbdd3e4fb	-0.10346409
118	0x3da71da2	0.08159949
119	0x3b0f3342	0.002185062
120	0xbe775a53	-0.2415555
121	0xbda1cd6d	-0.0790051
122	0x3d3de344	0.046359316
123	0x3d5b3c08	0.053524047
124	0xbd25c1d0	-0.040468037
125	0x3d702d2e	0.058636837
126	0x3dcf9d8b	0.10137471
127	0xbdc2046a	-0.09473498
128	0xbe8d3909	-0.27582577
129	0xbe0822ad	-0.13294478
130	0xbd2472ca	-0.040148534
131	0xbdbf77f0	-0.09349048
132	0x3e2a484f	0.16629146
133	0xbdd984ef	-0.10621058
134	0x3dc1f0b5	0.09469739
135	0xbd67674f	-0.056495007
136	0xbdbf7219	-0.09347934
137	0x3e0a8129	0.13525833
138	0xbc5279a3	-0.012846383
139	0x3d861acb	0.06548079
140	0xbdac268d	-0.084057905
141	0xbd50af07	-0.05094817
142	0xbe05c292	-0.13062504
143	0xbcfeafab	-0.031089624
144	0xbe16c9ad	-0.1472537
145	0x3ccae14d	0.024765635
146	0x3d93870e	0.07203494
147	0x3d561d3f	0.052273985
148	0xbd5ab1b7	-0.05339214
149	0x3db0585c	0.08610603
150	0x3ca51221	0.020150246
151	0xbe292f02	-0.16521838
152	0xbec8068f	-0.39067504
153	0x3e3b8ffa	0.18316641
154	0xbd70656c	-0.058690473
155	0x39f6e800	0.0004709363
156	0x3d82f509	0.06394393
157	0xbdb903d9	-0.09033937
158	0xbe16ade5	-0.14714773
159	0x3d34ab53	0.0441087
160	0x3d5c5519	0.053792093
161	0x3e04bdba	0.12963
162	0xbe82b34b	-0.25527415
163	0x3bd2bc02	0.0064311037
164	0x3e00cfc7	0.12579261
165	0x3db749d9	0.08949632
166	0xbe3b88fb	-0.18313973
167	0x3d9a9ec1	0.07549811
168	0xbdb58ba7	-0.08864527
169	0x3e112b7d	0.14176746
170	0x3e05e25a	0.13074628
171	0x3e4546c3	0.19265275
172	0xbd95ddbc	-0.07317683
173	0x3dc1210a	0.0943013
174	0xbe46c820	-0.19412279
175	0x3ce71b45	0.028211245
176	0xbe7d6c2e	-0.24748299
177	0xbe75c61e	-0.24001357
178	0x3d2d5576	0.04231783
179	0xbde15de7	-0.110042386
180	0xbe810945	-0.25202385
181	0x3c4db6d1	0.012555794
182	0x3de519c1	0.11186553
183	0x3c886684	0.016650446
184	0x3cc3316e	0.02382728
185	0x3e0cf339	0.13764657
186	0x3ddba713	0.10725226
187	0x3d5e8a95	0.05433138
188	0x3ceb9586	0.028757822
189	0xbd6741f9	-0.0564594
190	0xbe03230b	-0.12806337
191	0x3dce0188	0.10058886
192	0xbe6798f0	-0.22616935
193	0x3da0e681	0.07856465
194	0x3e45a9f2	0.1930311
195	0xbc8c0750	-0.01709333
196	0xbc813033	-0.015770053
197	0x3c909245	0.017647872
198	0x3e1c4820	0.15261889
199	0x3d5411ec	0.051774904
200	0x3dbbff62	0.0917957
201	0xbe3ab190	-0.18231797
202	0x3d4bc619	0.049749468
203	0x3d2b6ef1	0.04185385
204	0xbeac501d	-0.33654872
205	0x3e06f0f4	0.13177854
206	0xbe8fffd9	-0.28124884
207	0xbdaf1c59	-0.08550329
208	0xbe4b785d	-0.19870134
209	0x3de0f213	0.10983672
210	0xbc832b93	-0.016011989
211	0xbc4af4a7	-0.012387431
212	0xbb84e77c	-0.0040559154
213	0x3cbec14b	0.023285529
214	0x3d2a32e5	0.041552443
215	0x3dfcf95e	0.123522505
216	0xbdf9d608	-0.12199026
217	0xbdba31da	-0.0909154
218	0xbe45d3bb	-0.1931905
219	0xbdf02ac1	-0.11726905
220	0xbe411494	-0.18855506
221	0x3df8b29d	0.12143443
222	0xbea6cf49	-0.3258002
223	0x3ddac9e4	0.10683039
224	0x3e1d3db7	0.15355574
225	0xbcf34ff1	-0.029701205
226	0xbd68b66e	-0.056814604
227	0xbdbd1f84	-0.09234527
228	0x3de1066e	0.109875545
229	0x3cec8ca2	0.028875653
230	0xbe529191	-0.20563342
231	0x3d15494c	0.036446854
232	0x3d589c31	0.05288333
233	0x3e58b898	0.21164167
234	0x3e0f479a	0.13992158
235	0xbe0b0927	-0.1357771
236	0x3cfc9d19	0.030836629
237	0x3d1cb0b4	0.038254455
238	0xbe49c443	-0.19703774
239	0x3dcb7c82	0.09935857
240	0xbe0e337f	-0.13886832
241	0x3d6a202a	0.05715958
242	0xbc03afbd	-0.008037505
243	0xbdc2601f	-0.0949099
244	0xbda3afb3	-0.07992496
245	0x3d744ad0	0.05964166
246	0x3d9fad7f	0.07796764
247	0x3df22490	0.1182338
248	0xbdf4b44e	-0.11948453
249	0xbe99e5dd	-0.30058184
250	0xbd6fe55f	-0.058568355
251	0x3dacb914	0.08433738
252	0xbcf07b65	-0.029355714
253	0x3db892fc	0.0901241
254	0xbde7068d	-0.11280546
255	0xbe8e4a0d	-0.2779087

layer3.3.bias f4 [10]
0	0x3e4e3777	0.20138346
1	0x3d8640b4	0.0655531
2	0xbd71038a	-0.058841266
3	0x3d131ce8	0.03591624
4	0xbd329b10	-0.04360491
5	0x3a1b844e	0.00059324957
6	0xbc64236d	-0.013924462
7	0x3d94d903	0.07267954
8	0x3cc973b7	0.02459131
9	0x3d409d99	0.047025297
